…
        },
        "id": "6PRzOelOS4wK",
        "outputId": "44ba1899-d4b6-44e8-e601-71bafa5b0e63"
      },
      "source": [
        "model.summary()"
      ],
      "execution_count": null,
      "outputs": [
        {
          "output_type": "stream",
          "text": [
            "Model: \"sequential_1\"\n",
            "_________________________________________________________________\n",
            "Layer (type)                 Output Shape              Param #   \n",
            "=================================================================\n",
            "rescaling_1 (Rescaling)      (None, 200, 200, 3)       0         \n",
            "_________________________________________________________________\n",
            "conv2d_3 (Conv2D)            (None, 200, 200, 16)      448       \n",
            "_________________________________________________________________\n",
            "max_pooling2d_3 (MaxPooling2 (None, 100, 100, 16)      0         \n",
            "_________________________________________________________________\n",
            "conv2d_4 (Conv2D)            (None, 100, 100, 32)      4640      \n",
            "_________________________________________________________________\n",
            "max_pooling2d_4 (MaxPooling2 (None, 50, 50, 32)        0         \n",
            "_________________________________________________________________\n",
            "conv2d_5 (Conv2D)            (None, 50, 50, 64)        18496     \n",
            "_________________________________________________________________\n",
            "max_pooling2d_5 (MaxPooling2 (None, 25, 25, 64)        0         \n",
            "_________________________________________________________________\n",
            "flatten_1 (Flatten)          (None, 40000)             0         \n",
            "_________________________________________________________________\n",
            "dense_2 (Dense)              (None, 128)               5120128   \n",
            "_________________________________________________________________\n",
            "dense_3 (Dense)              (None, 6)                 774       \n",
            "=================================================================\n",
            "Total params: 5,144,486\n",
            "Trainable params: 5,144,486\n",
            "Non-trainable params: 0\n",
            "_________________________________________________________________\n"
          ],
          "name": "stdout"
        }
      ]
    },
    {
      "cell_type": "code",
…
